----------------------------------------------------------------
        Layer (type)               Output Shape         Param #
================================================================
            Conv2d-1         [-1, 64, 112, 112]           9,472
       BatchNorm2d-2         [-1, 64, 112, 112]             128
              ReLU-3         [-1, 64, 112, 112]               0
         MaxPool2d-4           [-1, 64, 56, 56]               0
            Conv2d-5           [-1, 64, 56, 56]          36,928
       BatchNorm2d-6           [-1, 64, 56, 56]             128
              ReLU-7           [-1, 64, 56, 56]               0
           Dropout-8           [-1, 64, 56, 56]               0
              ReLU-9           [-1, 64, 56, 56]               0
           Conv2d-10           [-1, 64, 56, 56]          36,928
      BatchNorm2d-11           [-1, 64, 56, 56]             128
             ReLU-12           [-1, 64, 56, 56]               0
          Dropout-13           [-1, 64, 56, 56]               0
             ReLU-14           [-1, 64, 56, 56]               0
           Conv2d-15          [-1, 128, 28, 28]          73,856
      BatchNorm2d-16          [-1, 128, 28, 28]             256
             ReLU-17          [-1, 128, 28, 28]               0
          Dropout-18          [-1, 128, 28, 28]               0
           Conv2d-19          [-1, 128, 28, 28]           8,320
             ReLU-20          [-1, 128, 28, 28]               0
           Conv2d-21          [-1, 128, 28, 28]         147,584
      BatchNorm2d-22          [-1, 128, 28, 28]             256
             ReLU-23          [-1, 128, 28, 28]               0
          Dropout-24          [-1, 128, 28, 28]               0
             ReLU-25          [-1, 128, 28, 28]               0
           Conv2d-26          [-1, 256, 14, 14]         295,168
      BatchNorm2d-27          [-1, 256, 14, 14]             512
             ReLU-28          [-1, 256, 14, 14]               0
          Dropout-29          [-1, 256, 14, 14]               0
           Conv2d-30          [-1, 256, 14, 14]          33,024
             ReLU-31          [-1, 256, 14, 14]               0
           Conv2d-32          [-1, 256, 14, 14]         590,080
      BatchNorm2d-33          [-1, 256, 14, 14]             512
             ReLU-34          [-1, 256, 14, 14]               0
          Dropout-35          [-1, 256, 14, 14]               0
             ReLU-36          [-1, 256, 14, 14]               0
           Conv2d-37            [-1, 512, 7, 7]       1,180,160
      BatchNorm2d-38            [-1, 512, 7, 7]           1,024
             ReLU-39            [-1, 512, 7, 7]               0
           Conv2d-40            [-1, 512, 7, 7]       2,359,808
      BatchNorm2d-41            [-1, 512, 7, 7]           1,024
          Dropout-42            [-1, 512, 7, 7]               0
           Conv2d-43            [-1, 512, 7, 7]         131,584
             ReLU-44            [-1, 512, 7, 7]               0
           Conv2d-45            [-1, 512, 7, 7]       2,359,808
      BatchNorm2d-46            [-1, 512, 7, 7]           1,024
             ReLU-47            [-1, 512, 7, 7]               0
           Conv2d-48            [-1, 512, 7, 7]       2,359,808
      BatchNorm2d-49            [-1, 512, 7, 7]           1,024
          Dropout-50            [-1, 512, 7, 7]               0
             ReLU-51            [-1, 512, 7, 7]               0
        AvgPool2d-52            [-1, 512, 1, 1]               0
           Linear-53                 [-1, 1000]         513,000
             ReLU-54                 [-1, 1000]               0
           Linear-55                  [-1, 200]         200,200
================================================================
Total params: 10,341,744
Trainable params: 10,341,744
Non-trainable params: 0
----------------------------------------------------------------
Input size (MB): 0.57
Forward/backward pass size (MB): 50.74
Params size (MB): 39.45
Estimated Total Size (MB): 90.77
----------------------------------------------------------------
